bilstm_attention.pth (torch, 157417 bytes, 39 tensors)

channel_att.lstm.weight_ih_l0 f4 [96, 3]
000000 a4 0d bf 3d 30 77 44 3e 04 a5 33 3e d8 d2 a5 bd
       0.093287736 0.19186091 0.17543417 -0.08096856
000010 b0 ee a9 bd 3c 75 83 be be 2e 1c 3d 07 26 bb be
       -0.08297479 -0.2567538 0.038130514 -0.3655245
000020 dd 6b b3 3c 00 c4 25 3e 1e ba 49 3e e8 a7 7a be
       0.02190202 0.1618805 0.19699904 -0.24478114
000030 dc a6 7e be 8e fc be be 5d 1a 01 be 15 79 14 3e
       -0.2486834 -0.3730206 -0.12607713 0.14499314
000040 16 bc be be eb 04 06 3e 64 61 96 bd 41 e4 dc bd
       -0.37252873 0.13087814 -0.073427945 -0.107857235
000050 7e 87 78 3d 1e 6a 80 bc 60 75 8e be 82 71 42 be
       0.06067609 -0.0156756 -0.27823925 -0.18988612
000060 1a 0b 72 be 3e 2c 77 3e a6 c5 ac bd 23 d9 b0 bc
       -0.23637047 0.24137971 -0.08436136 -0.021587914
000070 14 76 98 3e 07 7a d0 3e 1d 5d 8a 3e 69 b1 aa 3d
       0.29777586 0.407181 0.27024165 0.083346196
000080 ee 81 92 3d 21 f4 cb 3e 87 a1 3c be 27 da 8c 3e
       0.07153688 0.39834693 -0.18420993 0.27510187
000090 e2 6a 65 be e9 a7 b0 bd 7e 5d 15 bd c9 c6 d5 bd
       -0.22404054 -0.08625776 -0.036466114 -0.10438306
0000a0 6e 44 08 3e dd ef 53 3d 94 77 98 be 12 6f 89 3d
       0.13307354 0.051742423 -0.2977873 0.06710638
0000b0 ae 8f a7 be d6 92 a8 b8 8f 54 7c be ea 34 3f 3c
       -0.32726806 -8.0382146e-05 -0.24641632 0.011670331
0000c0 a0 8d 41 be 12 12 18 bf 80 6b f5 3c de a5 2c be
       -0.18901682 -0.59402573 0.029958487 -0.16860148
0000d0 e7 a5 84 3c a4 21 6d be 23 8f 05 be 02 81 b5 bb
       0.01619239 -0.23157364 -0.13042884 -0.0055390606
0000e0 88 e7 95 3d e6 c3 33 be 98 e5 10 3e ba bf 18 be
       0.07319552 -0.17555198 0.14150083 -0.14916888
0000f0 13 3a 3c be 0d 67 52 3e 6e 64 d4 3d ba 25 ce 3d
       -0.18381529 0.20547123 0.10370718 0.100657895
000100 70 5e b3 bc 69 37 27 be 0d 8a 5a be ab 95 f1 bd
       -0.021895617 -0.16329731 -0.21341725 -0.11796125
000110 91 4c 57 bd 57 8c a9 3e 46 b9 08 3e 20 07 f0 3e
       -0.052563254 0.33114883 0.13351926 0.46880436
000120 63 79 fa bd 5b 17 c5 3d 59 ca 0e be 9b a8 88 bd
       -0.12230184 0.09623595 -0.13944377 -0.06672784
000130 b0 e9 64 3e 35 2e a7 3d 86 ae f2 3d 27 e6 ae 3d
       0.2235477 0.0816311 0.11849694 0.08539992
000140 af 3e c4 3e f2 b5 34 3d d7 b6 f3 3d 64 90 9f 3e
       0.38329074 0.04411883 0.11900108 0.3116485
000150 b2 d3 0b 3e 88 9a 9f 3e 11 ba 84 3e 38 93 05 be
       0.13654974 0.31172585 0.25923207 -0.13044441
000160 88 68 aa be d1 50 ac bd 4d 2a 8f bc 46 a3 b9 3e
       -0.33282876 -0.08413852 -0.017476225 0.3625738
000170 6a 5e bd 3d 3e bb 10 3d 88 68 c6 bc 96 de eb 3c
       0.09246524 0.035334818 -0.024219766 0.02879266
000180 98 b0 bd bc 80 0a 3e 3e 29 f9 37 be b9 fb 25 bd
       -0.023155496 0.18558693 -0.17966141 -0.040523265
000190 2a cd 2b be c9 8c 3f be 52 df 59 be 3e e6 2f 3d
       -0.16777483 -0.18706049 -0.21276596 0.042944185
0001a0 48 d4 b2 bd 7e e0 c3 3d b9 67 d7 be 25 25 14 be
       -0.08731896 0.09564303 -0.42071322 -0.14467295
0001b0 e5 d2 b5 3e 56 3b ec 3d 91 e8 00 be cd 77 1d 3e
       0.35512462 0.11534755 -0.12588717 0.15377732
0001c0 28 32 ed bc e0 44 12 bd a4 b3 c6 be 16 b9 25 3d
       -0.02895458 -0.035710216 -0.3880893 0.040459715
0001d0 ea 74 89 be 07 b3 84 be ab 9f d6 be c9 a5 67 bd
       -0.2684701 -0.25917837 -0.41918692 -0.05655459
0001e0 9e 36 84 3e c8 13 bc be 14 76 d1 bd b0 fc d5 3c
       0.2582292 -0.36733842 -0.102276 0.026121467
0001f0 0c 16 d3 3e 51 3e 73 3e b8 88 e7 bd ca 92 23 be
       0.41227758 0.2375424 -0.11305374 -0.15973964
000200 bb eb 3d bd 67 f2 49 3e d7 8e 06 3e 14 44 66 3d
       -0.04636739 0.19721375 0.13140427 0.056217268
000210 d0 64 da be ea dd 62 be 03 ec 4a be f8 01 d6 3e
       -0.4265504 -0.22154966 -0.19816594 0.41798377
000220 7d d5 83 3d 79 f6 d1 be b1 47 a2 bd 59 8e 40 be
       0.06437204 -0.41008356 -0.0792383 -0.18804301
000230 5b 1b a7 3d 14 c3 62 be 4b ce 50 3e 6c 71 15 3d
       0.081595145 -0.22144729 0.20391195 0.03648512
000240 52 76 f6 3d 6e 02 13 3f 22 33 af bd 0d d0 c4 bc
       0.120342866 0.5742558 -0.08554675 -0.024024988
000250 32 a5 24 3c 22 4a c3 3d ee 00 96 3d e6 6e 75 be
       0.010049151 0.09535624 0.07324396 -0.23968086
000260 f4 f6 00 3e ea 16 19 3d dd e7 4e 3e f3 78 e3 bd
       0.12594205 0.03737537 0.20205636 -0.111070536
000270 64 11 67 bd a1 e0 bc bd f8 d0 14 3e 6b 24 99 bd
       -0.05641307 -0.09222532 0.1453284 -0.07477649
000280 e0 ac e3 3e 02 fd 81 bd b1 e8 bb bd db 55 80 3e
       0.4446783 -0.063470855 -0.09175242 0.25065503
000290 ae d3 16 bd e4 7c b8 bd 9d ff b9 3d 54 cd 27 3d
       -0.036822967 -0.09008196 0.090819575 0.0409673
0002a0 c2 26 b2 bc 58 fd 80 be 98 ad c3 3d f2 cc 42 bc
       -0.021746997 -0.25193286 0.09554595 -0.011889683
0002b0 dd bd 02 bf d2 68 a4 3b 72 d1 0d bd 60 fb e0 3e
       -0.5107096 0.0050173784 -0.03462357 0.43941784
0002c0 b5 d1 2d 3d 57 2e da bd 9d c2 07 bf 1d a2 32 3d
       0.04243632 -0.1065337 -0.5303133 0.043611635
0002d0 93 2e 9e 3d 69 77 59 be e2 43 96 bd e4 ee 17 bd
       0.07723727 -0.21236958 -0.07337166 -0.03709306
0002e0 9b b3 ed 3c 9e 06 68 bd 7e 8d 80 3e 61 70 16 be
       0.029016307 -0.056646936 0.2510795 -0.14691307
0002f0 4c 30 da 3d 7a d0 ec 3b 62 ba 6e bd ca e3 6a 3d
       0.10653743 0.007227001 -0.058283217 0.057346143
000300 9a a6 7e 3a 66 46 f9 3e f9 66 fc 3d 69 1d 10 bd
       0.00097141566 0.48686522 0.12324328 -0.035184298
000310 74 eb 4b 3e 58 fb 5e 3d 3d 11 f8 3c ab ac 35 be
       0.19914037 0.05443892 0.030281657 -0.17741649
000320 22 48 58 3e ec 4f 17 3e f1 9b 28 3e a2 38 fd bd
       0.21121266 0.14776582 0.16465737 -0.123643175
000330 94 38 8c 3c 7c d6 fa 3e 2c 29 7d 3c a5 7e ba 3e
       0.017116822 0.48991764 0.015451711 0.36424747
000340 b3 c4 44 be 67 da 46 3d e9 12 42 3e 4c 8d 86 3d
       -0.1921566 0.04854813 0.18952526 0.06569919
000350 83 ce 2f bd 66 26 5f 3d 88 f4 1a bf 46 e8 cd bc
       -0.042921554 0.05447998 -0.60529375 -0.02513517
000360 ed 23 c6 3d 04 36 41 3f 36 1f 00 3d 51 17 36 3d
       0.09674821 0.75473046 0.031279765 0.04445583
000370 74 4d dd 3d f9 10 1f bd 40 4e 91 bd 41 64 aa 3c
       0.10805789 -0.038834546 -0.07095003 0.020799758
000380 36 cc 19 3e 06 17 06 be b9 d4 58 3e 6c 08 a0 3d
       0.15019307 -0.1309472 0.21174897 0.07814106
000390 7a d2 26 be ec b0 ba 39 4f d1 df 3c 1e 96 3a bd
       -0.16291228 0.00035608502 0.027321486 -0.04555332
0003a0 52 bc 96 ba 29 26 93 3e 4d 01 67 3d 76 b1 85 3d
       -0.0011500216 0.2874005 0.056397725 0.065279886
0003b0 26 23 fc 3d bf 30 71 3d c1 1d 42 be ab 2a f6 3c
       0.123113915 0.05888438 -0.18956663 0.030049643
0003c0 8c ac 24 3e e8 f0 ef 3d fc 84 cb 3d 38 47 0d 3d
       0.16081446 0.11715871 0.09937474 0.034491748
0003d0 fc 78 5b 3d 65 c2 03 3f c8 13 b1 3e 84 7d c8 3e
       0.053582177 0.514685 0.34585404 0.3915826
0003e0 dc 16 ee 3d 76 71 09 3e 60 1c 45 be fe 6f 90 3e
       0.11625454 0.13422188 -0.19249105 0.28210443
0003f0 a1 03 35 be a9 6f d1 3d 73 24 4b be 6f 8e 92 3d
       -0.17677166 0.102263756 -0.19838123 0.07156073

channel_att.lstm.weight_hh_l0 f4 [96, 24]
000000 a7 d3 26 3e ce 80 b8 be cc 42 7c be 4e 51 d3 3d
       0.16291676 -0.3603577 -0.24634856 0.10318242
000010 4c 35 83 3d 3e 14 5d 3d 00 a9 66 3e 3b ae 7f 3e
       0.0640665 0.053974383 0.22525406 0.24968807
000020 8d 8b 16 bf 66 97 d3 bb c8 fa f3 3d 27 fc bb bd
       -0.5880669 -0.006457257 0.11913067 -0.091789536
000030 03 ad 51 3e 3f 59 fa 3d 4b b8 62 3e 68 9f 33 3d
       0.20476155 0.122240536 0.22140615 0.043853194
000040 cc 43 7f 3e c7 08 ad bd f4 f8 6a be 8c c0 83 3d
       0.24928206 -0.0844894 -0.2294653 0.0643321
000050 24 be 92 be 3d 8e 16 be 66 53 27 3c b1 48 98 bd
       -0.2866069 -0.14702697 0.010212755 -0.0743574
000060 af 58 50 be e4 65 46 3e c4 95 5e be 09 df c0 3d
       -0.2034633 0.19374806 -0.21736819 0.094175406
000070 56 bc a7 3c 28 8e da be e9 55 b9 3e 57 d2 8b bd
       0.020475548 -0.42686582 0.36198357 -0.068272285
000080 91 cb 96 be 58 a0 2b 3e a3 df 86 be f3 a5 a2 3d
       -0.29452184 0.16760385 -0.26342496 0.079418086
000090 6a 01 44 3d f0 b1 bb 3d 41 74 27 3e 27 4b 81 bd
       0.04785291 0.09164798 0.16352941 -0.06313162
0000a0 e6 34 db be d0 54 d9 3b 42 72 fc bb 7b 97 4d bd
       -0.42813796 0.006632425 -0.0077040503 -0.05019329
0000b0 f9 cb a2 be 12 bc 1f 3e c9 6f 66 3d 40 fe 64 3e
       -0.31796244 0.15599087 0.05625895 0.22362614
0000c0 b3 7c b5 3d 65 5b 84 3e 82 56 49 3e 34 a0 e8 3d
       0.08861675 0.25850978 0.19661906 0.11358681
0000d0 46 b3 09 be 8c 9d 67 3d 2e 31 bf 3e ff fc e9 bc
       -0.13447294 0.056546733 0.3734221 -0.02856302
0000e0 98 85 a8 be 92 13 b2 3d f2 73 8e 3d a0 e6 ee 3d
       -0.32914424 0.08695139 0.069557086 0.11665082
0000f0 58 cb f0 3d 79 b5 b0 3d ca b3 6b 3e 1f 4b b2 bc
       0.11757535 0.08628363 0.23017803 -0.021764336
000100 5f 82 99 be b3 0f 08 3e 49 e5 23 3e fd 52 2a 3e
       -0.29982278 0.13287239 0.16005434 0.1663322
000110 bb c8 a7 3b 40 92 28 bd 94 38 8c bd 84 f4 29 bd
       0.0051203645 -0.0411551 -0.06846729 -0.041492954
000120 bf e7 fa 3d 86 71 29 3e bc 16 17 3d 64 65 87 3c
       0.12251233 0.16547212 0.036886916 0.016527839
000130 fb 80 6f be 23 94 88 bd 88 60 4e 3e 99 f8 46 be
       -0.23389046 -0.0666888 0.20154011 -0.1943077
000140 33 65 c8 3d 40 5d b5 3c 01 0e 87 be 40 d4 5c 3d
       0.09784927 0.022139192 -0.26377872 0.053913355
000150 f0 81 5d 3e af 52 ea bd 3d ce 41 bd 79 6d 40 be
       0.21631598 -0.11441552 -0.047315825 -0.1879176
000160 00 d4 2c be 6d f2 30 3d 39 ed 55 be b7 00 2d 3e
       -0.16877747 0.043199945 -0.20891275 0.16894804
000170 f3 a3 25 be 7b 20 29 3c 77 9f 04 bd 50 dc e2 3c
       -0.16175823 0.010322685 -0.03237864 0.027692944
000180 0c 5e 52 3d 20 fe a8 3d 76 49 4e 3d 02 89 50 be
       0.05135922 0.082515955 0.050363027 -0.20364764
000190 bb 63 90 bd d3 e2 90 bd bd b9 52 be 63 ab ce be
       -0.07050272 -0.07074513 -0.20578666 -0.40365133
0001a0 19 5e 02 3c 92 84 41 3e 39 7d da bc db 37 f6 3d
       0.007957005 0.18898228 -0.026671039 0.12022372
0001b0 5c e3 a5 3e d1 bf 6e be c5 a4 84 3d 5e 97 a7 3d
       0.32400024 -0.2331536 0.0647674 0.08183168
0001c0 71 18 f3 be 0c 39 06 bf c3 56 1d 3f 5b 45 be be
       -0.47479585 -0.52430797 0.6146051 -0.3716229
0001d0 ca 9b 5b 3e 68 d9 dc 3d 53 89 8b be c4 6e 83 be
       0.21446148 0.107836545 -0.27253208 -0.25670445
0001e0 5f 05 bd 3d f9 b5 82 3d af 22 1d 3e 77 2c b2 bd
       0.0922954 0.06382365 0.15345262 -0.08699887
0001f0 f8 8b ce be 48 03 4e 3d 61 50 c4 3c ef 5d cc be
       -0.40341163 0.050296098 0.023964109 -0.39915416
000200 01 d0 40 be b2 56 3c 3e 04 03 54 bd bd 64 42 3e
       -0.18829347 0.18392447 -0.05176069 0.18983741
000210 d6 c6 aa 3e 2d d5 06 3e 5b 42 66 bd e3 c7 61 be
       0.33354825 0.13167258 -0.056215625 -0.22048907
000220 3a 71 1f bf 52 73 3d bd e9 9c 12 3e 8c da 82 be
       -0.62282145 -0.046252556 0.14317669 -0.25557363
000230 dd a4 18 3e 1f ab 9d 3e ba f6 02 bf 24 e1 03 be
       0.1490664 0.30794618 -0.51157725 -0.12878853
000240 c4 00 13 3e 1e d1 6b 3e 14 b7 a8 bc cf 9f 37 3e
       0.14355761 0.2302899 -0.020595111 0.17932056
000250 ce fd 34 be 41 31 98 3d 32 b6 46 3c b6 29 c6 3d
       -0.17674944 0.074312694 0.0121284 0.096759245
000260 5d 0f 99 be fe 29 21 3c ce c2 c9 3e 72 67 4a bc
       -0.29894534 0.009836672 0.39406437 -0.012353765
000270 f1 df 40 be 1a 0f 51 3e 65 78 0b be b8 b0 c4 3a
       -0.18835427 0.20415917 -0.13620146 0.001500628
000280 ea 43 2b 3c b6 ba 10 3e 41 88 1a be 17 5f ba 3e
       0.010453204 0.14133725 -0.15091039 0.36400673
000290 4c 6d 88 3e 41 79 c7 3e 28 64 4b bd de bc 1c be
       0.26645887 0.38959697 -0.049656063 -0.15306422
0002a0 0b db fc bd 49 db dc 3d 44 c2 1b 3d 33 a9 a0 3d
       -0.12346467 0.10784013 0.038027063 0.07844772
0002b0 7d 61 e0 bd 4b c0 e0 bc 5c 1d a9 3e b3 c5 b5 bd
       -0.109560944 -0.027435442 0.33030212 -0.08875599
0002c0 4d 49 b0 be 23 70 9f 3b 02 a6 a2 3d 83 06 37 be
       -0.34430924 0.0048656627 0.0794182 -0.17873578
0002d0 2e aa 54 be 32 6f 8f bd 20 ab 44 3e b6 d4 6d bd
       -0.20768043 -0.07003631 0.19205904 -0.058064185
0002e0 ca 00 47 be b1 fc 53 3e 42 8c be bd 9a dd 3f 3e
       -0.19433895 0.20701863 -0.09304096 0.18736878
0002f0 78 f6 52 be f3 08 28 be 4d 7e cc bd dc 19 4a 3e
       -0.20601833 -0.16409664 -0.099850275 0.19736427
000300 4c 16 1a 3f 06 cd b5 bd e1 f0 e2 3e ea ca 5f be
       0.6019027 -0.08876996 0.443244 -0.2185475
000310 4e 31 04 bf e9 fa 17 3e 8a 0e f1 bc 80 d2 a7 be
       -0.51637733 0.14841808 -0.029425878 -0.32777786
000320 25 41 dd be e2 55 0b bf 27 4c a1 3f 08 9f 70 be
       -0.43213764 -0.5442792 1.2601365 -0.23498166
000330 62 d4 9c 3c 1f 1c 82 be af a5 4b 3e 14 21 4d 3e
       0.01914424 -0.2541208 0.19887422 0.2003215
000340 0e f6 da be ea ac 0f bd 10 87 63 3d ac 52 6d be
       -0.4276585 -0.035077013 0.055548728 -0.23176068
000350 66 08 9d 3e cf 64 2e bd 3d 28 eb be ca 35 2f bf
       0.3067047 -0.042576607 -0.45929137 -0.6844145
000360 b0 f0 04 3d 0f 10 72 3d b2 27 86 3d a6 8f 36 3e
       0.0324561 0.059097346 0.0655054 0.17828235
000370 4e e8 b2 be ac 3d bd be b0 26 dc bc 78 56 40 3d
       -0.3494286 -0.36961114 -0.026873916 0.046957463
000380 95 11 7a be 08 50 4d 3e 70 16 7e bd e8 79 00 3f
       -0.2442077 0.20050061 -0.062033117 0.50186014
000390 10 54 81 be ff dd a8 3e 6a 94 de 3d 21 79 ae 3d
       -0.25259447 0.3298187 0.108681515 0.08519197
0003a0 44 0c ea bd d0 64 94 3d 82 33 bc 3d 85 94 85 3e
       -0.11428121 0.07245791 0.09189512 0.26089874
0003b0 c2 56 f9 be 20 a5 76 be 48 06 51 bd 1c d2 73 3e
       -0.48699003 -0.24086428 -0.05103138 0.23810619
0003c0 ff f9 ea 3e b7 36 9e be a8 e8 22 3e b3 48 f0 3d
       0.45893857 -0.3090112 0.15909064 0.11732616
0003d0 d0 4b f0 be 0c 80 b3 be ba 48 53 3e 5e 77 d7 be
       -0.4693284 -0.3505863 0.20633212 -0.42083257
0003e0 a1 5d d8 be 53 c6 10 be 23 e3 1d 3f ff 48 d1 3e
       -0.42258933 -0.14138155 0.6167471 0.40876004
0003f0 b8 75 f8 3d c8 4c c7 3d 14 36 8f 3e d1 1a 04 3f
       0.12131828 0.09731442 0.27970946 0.5160342

channel_att.lstm.bias_ih_l0 f4 [96]
000000 03 14 3a 3e da 7e c1 3c b0 31 42 be f1 53 2a be
       0.18171696 0.023620058 -0.18964267 -0.16633584
000010 61 7e e4 bd ae ae 2e 3e d5 04 ad bd 3a 29 a6 bd
       -0.11156917 0.17058823 -0.08448187 -0.08113332
000020 3b f8 03 bd 11 47 b7 3e 17 cd 08 3e fd 72 ce 3b
       -0.032219153 0.35796407 0.13359486 0.0063003288
000030 91 74 ab be 71 44 80 be ab fa 62 be cc 27 71 be
       -0.3348737 -0.25052217 -0.22165935 -0.23550338
000040 7c d2 8e bc 2a ab aa 3d df 26 72 bd 8c 03 11 be
       -0.017434351 0.08333428 -0.0591191 -0.1416151
000050 cd 87 81 3e 0f d0 fa bd 1a cf 88 bd 09 c0 9a 3e
       0.2529892 -0.12246715 -0.066801265 0.30224636
000060 a8 12 b2 3d 97 54 1e be ab d1 d3 3d 53 f9 a4 3e
       0.08694965 -0.15461956 0.10342725 0.3222147
000070 ad 4a 8e 3e 56 66 8e 3d 0e a8 43 3e 45 bb 11 3d
       0.27791348 0.06953113 0.19107077 0.035578985
000080 ed 59 5a be 6a 02 e5 bd 40 38 30 bd 06 c3 0b be
       -0.21323366 -0.11182101 -0.043022394 -0.13648614
000090 fa c4 7b 3d e4 b2 e4 3d 70 04 ec bd d4 bc 17 be
       0.06146715 0.11166933 -0.11524284 -0.14818126
0000a0 de 90 50 3e 90 22 40 3e 4f f2 32 be be 4e 12 3e
       0.20367762 0.18763185 -0.17475246 0.1428785
0000b0 94 9a 2c be c2 07 e9 bd cb 3f 29 be df 48 e1 3d
       -0.16855842 -0.11378433 -0.16528241 0.11000227
0000c0 99 f1 65 be b5 74 30 be b4 70 3c be b8 1c 86 3c
       -0.22455443 -0.1723202 -0.18402368 0.016371116
0000d0 02 99 06 be 87 ab 76 3c cd a9 1c 3c 51 3d fd 3d
       -0.13144305 0.015055544 0.009561968 0.12365211
0000e0 c0 fc 12 3e 1b 1e d3 3c 9a c3 1f be 49 4e 04 3e
       0.14354229 0.025771191 -0.1560196 0.12920488
0000f0 4a 68 48 bd 55 6d b7 3d c0 5c a7 3d 62 79 a4 3d
       -0.048927583 0.089564 0.081719875 0.080309644
000100 28 9f 06 3e 6c 32 c4 3d 8f 11 95 bd be 2f 89 3d
       0.13146651 0.0957993 -0.0727874 0.06698559
000110 3f 30 2e bd 85 4a 1c be aa b0 9c bd d7 8c b3 3d
       -0.04252648 -0.15262802 -0.076508835 0.087670974
000120 6c 65 27 3e bd d7 8e be 3b 6c 49 be 70 be ca bd
       0.16347283 -0.2789897 -0.19670193 -0.09899604
000130 68 b0 39 3c 8d 8f 42 3e b5 6e 3e be 89 54 38 ba
       0.011333562 0.19000073 -0.18596919 -0.00070316397
000140 76 6c c0 3d 62 b7 c3 3e 78 f0 8a 3e c0 3e d2 3c
       0.09395687 0.38225847 0.27136588 0.025664687
000150 e4 85 25 bd bb 6c 38 3d 7f b4 09 be d8 fb 9b 39
       -0.04041089 0.04502557 -0.1344776 0.00029751542
000160 70 0e 73 be de 74 c2 bd f9 ec 13 be f9 64 86 be
       -0.23735976 -0.09494947 -0.14445867 -0.2624891
000170 2e c6 fe 3e cf f4 58 be a6 e8 84 bd ab cd 38 3f
       0.49760574 -0.21187137 -0.06489687 0.72188824

channel_att.lstm.bias_hh_l0 f4 [96]
000000 11 c6 0b 3e 98 cf 45 bd 4d db a5 bd 02 7b a3 bd
       0.13649775 -0.04829368 -0.08098469 -0.07982446
000010 e4 53 8e bd 8a 5b 55 3e f6 8e 44 be 74 88 25 3d
       -0.069495946 0.208357 -0.1919516 0.040413335
000020 b5 04 59 be f1 df b4 3e 8b e1 f3 3e 70 03 3a 3e
       -0.21193202 0.35327104 0.47633013 0.18165374
000030 89 89 43 be c9 05 78 be 3e 22 48 3c 8a 06 3d 3d
       -0.19095434 -0.24220957 0.012215195 0.046148814
000040 ec 08 37 be a8 a3 b5 3d de 09 7b be 38 f7 35 be
       -0.17874497 0.088691056 -0.24515483 -0.17770088
000050 c5 4a 8e 3e d3 4c 4f be 96 c8 04 be b7 66 26 3f
       0.2779142 -0.2024415 -0.12967142 0.6500048
000060 15 ca 6a be fe a1 58 3d 45 22 8e 3d 7c 55 a2 3e
       -0.2292865 0.052888863 0.0694013 0.31705844
000070 8e 26 5a 3e 7e 1c 43 3c f3 ff 39 be 9f 42 48 3d
       0.2130377 0.011908649 -0.18164043 0.04889166
000080 c5 9e 81 bb 2c 93 e8 3c a4 32 28 3c d9 ca ec 3d
       -0.0039556944 0.02839049 0.01026598 0.115621276
000090 2c a0 8c 3e 78 9f 27 bd 8d a3 11 be 99 ae 7a bb
       0.2746595 -0.040923566 -0.14222546 -0.003825104
0000a0 d9 88 f6 3d 73 42 9e 3e a2 77 08 be b6 5d 51 3c
       0.1203782 0.30910072 -0.13326886 0.01277869
0000b0 78 f2 25 3e bb d0 17 be c1 4f 16 be ee af cb bd
       0.16205776 -0.14825718 -0.14678861 -0.09945665
0000c0 1e 3e 97 bc ea f2 24 3d f3 0a 42 3e 57 4d b9 bd
       -0.018462237 0.040270723 0.1894949 -0.090479545
0000d0 b1 d6 13 3d c8 87 1a be a7 4b d4 bd 37 53 9f bd
       0.036093418 -0.15090859 -0.10365992 -0.07779544
0000e0 c7 60 4b bd 92 ba 45 3e 7f 32 92 bd 56 51 14 3e
       -0.04965284 0.19309452 -0.071385376 0.14484152
0000f0 4e 09 36 3e 1b eb 30 3d cf 0e 02 be db 23 d6 3d
       0.17776987 0.043192964 -0.12700962 0.10456058
000100 74 56 08 be 24 b1 30 be b3 0b 5d bd 17 55 50 be
       -0.13314229 -0.17255074 -0.053966235 -0.20344959
000110 90 39 45 be 46 4e 8e bd 11 92 7c 3c 0d f9 22 3e
       -0.1926024 -0.06948523 0.015415684 0.15915318
000120 cc 07 be 3e c4 77 b3 3a f2 63 46 be 69 c2 23 3d
       0.37115324 0.0013692309 -0.19374064 0.039980326
000130 38 9f 3a be 30 c6 3a 3e 7c 52 81 3d b6 73 55 3d
       -0.182248 0.18239665 0.06314561 0.052112304
000140 64 95 55 bb 41 94 8b 3e fc cc f0 3e 88 c5 13 bd
       -0.0032590264 0.27261546 0.4703139 -0.036077052
000150 92 34 72 be db 20 75 bd 37 94 74 be 1a 26 8e be
       -0.23652866 -0.059845787 -0.23884664 -0.27763444
000160 f9 04 d2 3d cb 17 33 be de 6e 4f be f2 96 1e 3d
       0.10254855 -0.17489545 -0.20257136 0.03871817
000170 16 b1 22 3e 7d 2a a6 bd 18 c3 60 be cb d3 06 3f
       0.15887865 -0.08113573 -0.21949422 0.5266692

channel_att.lstm.weight_ih_l0_reverse f4 [96, 3]
000000 69 3a 36 3d 29 fb 17 be 10 3f eb 3d a9 db d7 bd
       0.044489298 -0.14841904 0.114866376 -0.10539944
000010 15 d0 ca 3c 7e a1 14 be 90 be 28 3f 71 1c 77 3e
       0.024757424 -0.1451473 0.65915775 0.24131943
000020 4a a3 a0 3e d8 7e 73 be a1 c8 01 3e 72 df 26 3e
       0.3137458 -0.23778856 0.1267419 0.16296175
000030 fa c7 99 3d bd fa e8 3d 16 d2 ba 3d 0d 59 bd 3d
       0.075088456 0.113759495 0.09122102 0.09245501
000040 8d e1 67 bc 64 ae 9b 3d cd 14 eb bc a2 17 e7 bd
       -0.014152897 0.07601622 -0.028696442 -0.112838045
000050 d9 38 2c 3e 16 93 b9 bd 7c 11 71 be 5e a9 5c be
       0.1681856 -0.090612575 -0.23541826 -0.21548983
000060 c8 97 0c bf de 73 bd bd f7 6e 19 be 45 7b 07 3e
       -0.549191 -0.092506155 -0.14983736 0.13230617
000070 fb b4 5b 3d 5d c9 65 be da 8b c2 bd 83 e3 bc be
       0.053639393 -0.22440095 -0.09499331 -0.36892328
000080 0a d2 0f 3c 6b 02 8d 3e bc 95 d1 3e 41 39 a2 3c
       0.008778105 0.27540907 0.4093455 0.019802691
000090 9c 51 6a be 9f 77 1c bd ad 12 46 3b 40 74 5c bd
       -0.22882694 -0.038200017 0.0030223534 -0.053821802
0000a0 88 7a 6a 3e 2f 13 f7 bc f3 1a 30 be b9 0d 0e 3d
       0.22898304 -0.030160515 -0.1719778 0.034681056
0000b0 7e 19 f4 bd 56 a7 02 3e f1 57 05 3e 42 fe 4f be
       -0.11918925 0.12759146 0.13021828 -0.20311835
0000c0 31 33 3c be 02 d8 be 3c 71 65 27 be 09 a9 16 3e
       -0.18378903 0.02329636 -0.1634729 0.1471292
0000d0 74 7c 45 3d b7 0b d6 3d 14 93 a4 bd 58 5a 4b be
       0.04821439 0.10451453 -0.080358654 -0.19858682
0000e0 4c 04 42 3d 84 ca f5 bc 98 e7 5c 3d d0 85 10 3e
       0.04736738 -0.030003794 0.053931803 0.14113545
0000f0 4f e0 84 be f9 a5 eb bd 6a 56 f5 bd 51 f2 f3 bd
       -0.25952384 -0.11506266 -0.11979373 -0.119114526
000100 79 4a 50 3e 95 17 30 3e dc 68 aa 3e 3c 27 2d 3e
       0.20340909 0.17196496 0.33283126 0.16909498
000110 85 61 10 3d a9 f3 4b bd 29 4a 36 be d5 3a a2 bc
       0.035249252 -0.04979292 -0.17801727 -0.019803444
000120 b2 b4 cc 3d f0 c3 df bc 4c 8c 3e be bc c9 f7 bd
       0.099954024 -0.02731511 -0.18608207 -0.12099025
000130 b7 45 fa 3d fd 79 13 3e 92 48 05 3f 55 6e 86 be
       0.12220328 0.14402004 0.5206386 -0.26256052
000140 76 d7 94 3c 78 e6 27 3d ed 76 56 3e 18 b6 7c 3e
       0.018169146 0.040991277 0.20943804 0.24678838
000150 e6 16 65 bd 49 59 b0 3d 29 f6 12 3e 9c 5f 98 3d
       -0.05593004 0.0861078 0.14351715 0.07440111
000160 96 af 88 3e 78 61 4e 3e a5 28 30 be 30 05 9f bd
       0.2669646 0.20154369 -0.17203005 -0.07764661
000170 9c 67 19 bd 28 54 62 3e 33 dc 85 bc e5 02 09 3e
       -0.037452325 0.22102416 -0.01634035 0.1338001
000180 ce d5 46 bf 39 ad 9c be a4 cf 13 be 63 5e fe 3d
       -0.7766999 -0.30600908 -0.14434677 0.124203466
000190 27 90 97 3c 98 cc 8a 3e 8d bf 3c 3d ea cd 26 3e
       0.018501354 0.27109218 0.046081115 0.16289487
0001a0 f1 f8 8a 3e 5c 69 cd 3d 9c df a9 bd 8b 28 2e 3e
       0.27143052 0.10029861 -0.08294603 0.17007653
0001b0 03 9f 98 be c9 3e 7d 3d 95 1e 84 be 46 e3 97 be
       -0.29808816 0.061827455 -0.25804582 -0.29665583
0001c0 07 e0 17 3e 96 f3 4d 3d 0d 1c 2e 3e 9c 70 eb 3d
       0.14831553 0.05028113 0.17002888 0.11496088
0001d0 2e ab 67 3e d9 01 27 be 0c 8d 38 3e d1 28 d8 3d
       0.22623894 -0.16309299 0.18022555 0.1055466
0001e0 c2 2b e1 be f2 6f 28 be 4e ab 7c be 0a a6 af bd
       -0.43978697 -0.16448954 -0.24674723 -0.08576591
0001f0 41 f7 21 be f5 4f 28 3b c6 fc 7b be 3d 1a 8d be
       -0.15816976 0.0025682424 -0.24608144 -0.2755908
000200 f6 4e 0a bd f8 d9 82 3c ef c8 87 be 9a d5 49 bd
       -0.03376671 0.015973076 -0.26520488 -0.049275972
000210 55 61 43 3e a3 c6 86 3e fe 91 9c 3e 4a 96 b9 be
       0.19080098 0.26323423 0.30580133 -0.36247474
000220 c3 38 f6 3d e2 17 61 3e 92 ee 0a 3e bf e8 59 bd
       0.12022545 0.21981767 0.1356757 -0.05320048
000230 1c 9f 28 be d9 3a 07 bf 16 ad aa bd b4 9e 92 bd
       -0.16466945 -0.5282417 -0.08333795 -0.071591765
000240 77 ca 18 bd f3 c5 81 3d 83 f6 2e 3b 87 b4 92 bd
       -0.03730246 0.06336584 0.0026697225 -0.07163339
000250 0f fc 77 3d b1 00 f9 bd 52 e7 c3 3e b6 54 26 3e
       0.060543116 -0.12158335 0.3826242 0.16243252
000260 37 e8 ef bc c9 eb 78 3e d2 2e 12 be e7 3c 11 be
       -0.029285533 0.24308695 -0.14275673 -0.14183389
000270 00 ce 9a 3e 47 a0 6e be 33 aa dc 3d 36 ee 02 be
       0.3023529 -0.23303328 0.107746504 -0.12786183
000280 ad 03 8b bd fd f9 50 3d 20 40 89 3e 82 bc 21 be
       -0.067878105 0.051019657 0.26806736 -0.15794566
000290 22 a3 e1 3a 9e 0d fc 3d 7c 4e 88 bd e4 2a 44 be
       0.0017214755 0.12307285 -0.06655595 -0.19156986
0002a0 e7 18 c7 be 84 c2 d8 bd da 23 f2 3c e0 b7 3c bd
       -0.38886186 -0.10583976 0.029558111 -0.046073794
0002b0 fb c5 c7 3d bd d3 d7 bd 1d 0a af bd d3 95 9d 3d
       0.09754559 -0.10538433 -0.08546851 0.07694592
0002c0 ac 5b 5e 3e cb 00 e5 be cf 02 45 be 47 57 43 3d
       0.21714658 -0.44727167 -0.19239353 0.047690656
0002d0 8c ac 53 3e df fc 82 be 22 28 62 3d e9 4f 8e 3e
       0.2067129 -0.2558355 0.055214055 0.27795342
0002e0 c3 d6 a2 be 88 70 dc 3d dc 76 12 39 28 00 c0 3d
       -0.31804475 0.10763651 0.00013967924 0.0937503
0002f0 98 f4 3a 3d 42 98 96 3e fe b9 44 be 5b 81 0b 3e
       0.04564342 0.29413038 -0.19211575 0.13623564
000300 34 5b 7c be ee 41 ff 3c fc d7 33 bd 9e 84 8e 3e
       -0.24644166 0.031159367 -0.04390715 0.27835554
000310 7e 8d 35 3e 8e 9a 5f 3c 71 07 cc be 2d 26 c5 bd
       0.17729756 0.013647689 -0.39849427 -0.09626422
000320 65 55 3f 3d 15 1e 19 be 57 47 91 bd 82 3b ee bd
       0.046712298 -0.14952882 -0.07093685 -0.11632444
000330 a4 be 2a 3d 87 ab 05 3e 5f 78 7c 3c 45 b4 e5 3e
       0.041685715 0.13053714 0.015409558 0.44864097
000340 47 be de bc db 9c a8 3a e2 66 4b be c2 08 ac bd
       -0.02719034 0.0012864129 -0.19863465 -0.08400108
000350 c6 9c 10 bd 76 cd e4 bd be 8f 83 be 2d 81 66 bd
       -0.03530576 -0.11172001 -0.25695604 -0.056275535
000360 f6 b4 09 3e 83 80 01 be ee d4 df bd 71 0f 62 bc
       0.13447937 -0.1264668 -0.10929285 -0.013797627
000370 05 c1 88 3d 6a ab 60 3d 75 87 35 3f 28 bb 1f be
       0.066774406 0.054850973 0.70909816 -0.15598738
000380 a9 4d 4c bd 80 1f 26 be 99 67 a1 3c 8c cf e6 3d
       -0.04987875 -0.16222954 0.01970272 0.11270055
000390 aa 16 4a bd ef 89 33 3d 83 3e a1 3e 86 ef 2f be
       -0.04933802 0.043832716 0.31493005 -0.17181215
0003a0 82 fc 76 bd 29 a0 c7 3d af 85 01 3e ad d0 01 3e
       -0.060299404 0.09747345 0.12648652 0.1267726
0003b0 24 80 47 bc 53 aa 8b be 8e 0c 72 bc 77 01 16 3d
       -0.012176547 -0.27278385 -0.014773501 0.03662249
0003c0 61 a9 fe be 8c c9 93 bd 90 d3 30 3e 08 36 5d be
       -0.497386 -0.072161764 0.17268205 -0.21602643
0003d0 a0 95 a4 3d 0c b1 c5 3d 65 32 3e 3d 97 e4 4c be
       0.08036351 0.0965291 0.04643478 -0.20009075
0003e0 a1 cc 9b be c0 8f 94 3e 71 a8 1b 3e ad a8 2b 3e
       -0.30429557 0.29015923 0.15200974 0.16763563
0003f0 74 9e b5 bd 54 6e 3f 3e 1c 41 0f 3e 07 e5 15 be
       -0.08868113 0.1869443 0.13989681 -0.14638148

channel_att.lstm.weight_hh_l0_reverse f4 [96, 24]
000000 41 58 5a 3e 51 81 2a be 32 03 1e 3f ff fd 3a 3d
       0.21322729 -0.16650893 0.61723626 0.045652386
000010 06 24 99 3d cf e7 cc bc 85 4b b0 bc 26 de 3f 3e
       0.07477574 -0.025012879 -0.021520386 0.18737087
000020 79 56 c5 3d 00 2a 23 be 18 bd b9 3d 54 13 4d bf
       0.09635634 -0.1593399 0.0906927 -0.8010762
000030 fd 47 2f 3b 2e ac 8d be 06 ec ea bc b5 e4 f8 3d
       0.002674579 -0.27670425 -0.028676998 0.121529974
000040 e9 c8 c5 3e 6b 5d e1 3e 7f e6 df 3a c8 8b 41 3c
       0.38629845 0.44016585 0.0017082243 0.011813112
000050 c3 fe a2 be 7c 49 4d be 68 59 04 bf a8 08 bd be
       -0.31834993 -0.20047563 -0.51698923 -0.36920667
000060 a2 15 3e bd 80 4c f1 3c 28 01 ec 3d dd 03 fa bc
       -0.04640735 0.029455423 0.11523658 -0.03051942
000070 ae 28 82 be cf fb 20 3d 6a 94 89 bd f3 e9 81 bd
       -0.2542166 0.039302643 -0.06717761 -0.063434504
000080 c4 1f 0d bf 70 fb cb bd 96 97 86 3e 3d da 0b bf
       -0.55126595 -0.09960067 0.26287526 -0.5462988
000090 60 d9 56 3b 5f 7b c1 be 4c c5 94 bd 8d 92 91 bd
       0.0032783374 -0.37789437 -0.07264194 -0.071080305
0000a0 e0 06 d6 be d2 84 d6 3e 4f 1e 22 be 89 54 ad 3d
       -0.4180212 0.4189821 -0.15831874 0.084633894
0000b0 b8 66 97 3d 78 55 78 3e 49 86 ac 3b a5 ff 0a bf
       0.07392639 0.24251354 0.0052650315 -0.5429633
0000c0 69 fa fe 3e 34 b4 aa 3d 25 60 25 3f f2 f4 71 be
       0.49800423 0.08335152 0.6459983 -0.23628595
0000d0 77 29 60 be c3 ac 90 be 7d 77 d1 3d 7b 88 04 3e
       -0.21890818 -0.28256807 0.10227869 0.12942688
0000e0 6e a3 54 bd bf df 59 3e 09 03 5b be 70 1f ae be
       -0.05191367 0.21276759 -0.21387877 -0.3400836
0000f0 3e 0b d3 3d 46 8b 51 3e 14 b2 a4 3e 3f 7f 1c 3e
       0.10304879 0.20463285 0.32167113 0.15282916
000100 8b 9f bc 3e 82 01 c7 3d 5f ef a1 be 32 b6 1c be
       0.36840472 0.097170845 -0.31627938 -0.15303877
000110 3e d2 35 3d b8 1b 80 3e 93 c0 1e bf ca bf 21 3e
       0.044389956 0.25021148 -0.62012595 0.15795818
000120 17 65 e7 bd 2b a5 f9 3d fe 69 c0 3c d0 09 1b bf
       -0.11298578 0.121897064 0.023488041 -0.6056185
000130 cc b1 c5 bd 3d 3e 67 bd bb fd c1 bd a1 42 13 3d
       -0.09653053 -0.05645584 -0.09472223 0.035952214
000140 8c e6 2a 3e 07 53 09 bd 1d 41 dc bd 23 d0 f3 bd
       0.16689509 -0.033526447 -0.10754607 -0.11904933
000150 3a be 16 3c 1a 73 8a 3d 3d a9 be 3e d7 29 00 be
       0.009200627 0.06760235 0.37238494 -0.1251596
000160 ba 54 69 3e cf d6 27 be 2f 7a 8f bd 89 53 82 bd
       0.22786227 -0.16390537 -0.070057265 -0.06363589
000170 9b 57 cb 3d 03 ae 15 3c 6b 42 92 3e d5 5e 78 bc
       0.09928819 0.009135726 0.28566298 -0.0151593285
000180 fc 17 8f be a9 7a 92 3e 5e 03 6a be cb 52 97 be
       -0.27947986 0.28609207 -0.22852847 -0.29555354
000190 b7 27 1c be a6 cc 5d be 1e 1d a1 bc 0c 3b c3 bc
       -0.15249525 -0.21660098 -0.019667204 -0.023831867
0001a0 d2 9e 77 be 2b 84 1c be 47 7e 42 bc d2 86 f7 bd
       -0.24181679 -0.15284793 -0.011870927 -0.12086262
0001b0 2f 5b 82 bc 69 39 1e 3e d5 4b dd bc 56 06 47 be
       -0.01591262 0.15451588 -0.027013699 -0.1943601
0001c0 80 ea 7a bd 6e 36 42 be ec 2d 4c 3e ac 55 82 be
       -0.061258793 -0.18966076 0.19939393 -0.25455987
0001d0 3f c8 59 bd 7e a5 08 be 8f 5f 0f bd 3d 6b 31 be
       -0.053169485 -0.1334438 -0.03500324 -0.17326064
0001e0 f6 eb c6 3d d7 ca 46 3d 62 38 b5 3d b7 c9 ee 3c
       0.09712975 0.048533287 0.08848645 0.02914892
0001f0 f9 47 31 be 11 33 5b be d7 50 0d be 49 8d 09 bd
       -0.17312612 -0.21406199 -0.13800369 -0.033582006
000200 df 22 4b 3d ed f5 8c 3e 53 40 1b 3d d8 a1 e6 3e
       0.049593803 0.27531376 0.03790314 0.45045352
000210 c3 5f 8d 3d f0 88 ca 3c fc c6 43 3e 40 04 29 bd
       0.06903031 0.0247235 0.19118875 -0.04126382
000220 4a 8d a2 bd f8 aa 73 bd b4 ca 57 bc 16 09 91 bd
       -0.07937105 -0.05948922 -0.013170887 -0.07081811
000230 4a 6e 14 3e 9b f5 82 3e 71 e5 24 be 15 09 93 3e
       0.14495197 0.25578007 -0.1610315 0.28717867
000240 86 fb 4b be b7 21 03 3e 14 d9 b9 3c 4c 42 00 3d
       -0.19920167 0.1280583 0.022686519 0.031313226
000250 00 8e 2a 3d 29 87 04 3e 11 24 32 3d 5f 60 6b bd
       0.041639328 0.12942185 0.043491427 -0.057464954
000260 14 5b bc 3e 4e cd dd bd c7 d2 93 3e 7d 6b 64 3d
       0.36788237 -0.108301744 0.28871748 0.05576657
000270 0c ef 69 3d cd 8c b7 3d 79 6b 8a bd a5 aa 2b 3e
       0.05711274 0.089624025 -0.0675878 0.16764314
000280 de 75 f6 bd 94 5d 26 be 0d df ec 3d ad 10 31 be
       -0.120342 -0.16246635 0.11565981 -0.17291518
000290 01 d3 f7 3c eb 3c ea 3d 02 c1 1e bd 41 c7 7a 3d
       0.030251982 0.114374004 -0.038758285 0.06122518
0002a0 d5 f2 7e bd 56 f4 97 be 85 aa b7 bc 61 33 02 3e
       -0.0622433 -0.296786 -0.022420177 0.12714912
0002b0 84 67 cd 3e 76 45 03 3f 87 90 df 3d 1b 6d 42 3e
       0.4011804 0.51277864 0.10916238 0.18986933
0002c0 7d e4 bf 3d 4c a9 56 be 43 20 8a 3d 0f 0c 16 3c
       0.093697526 -0.20963019 0.06744435 0.009158148
0002d0 03 81 c5 3d d3 39 24 bd 55 af 9b be 59 a0 91 3e
       0.09643748 -0.040094208 -0.30407205 0.28442648
0002e0 65 e5 94 3e 1a 9a 09 3e 96 a3 94 3d 95 87 f9 bd
       0.29081264 0.13437691 0.07257764 -0.12184063
0002f0 c1 ee 16 bf 38 f5 44 be 64 93 d3 3d c1 37 02 be
       -0.5895806 -0.19234169 0.10330847 -0.12716581
000300 65 5a a1 bc b4 e1 da 3e 36 2b a1 3b 80 64 bc be
       -0.019696424 0.42750323 0.004918481 -0.36795425
000310 09 e3 9a be a5 57 87 bc 88 c6 47 be 3f cf d0 3c
       -0.3025134 -0.016521284 -0.19509327 0.025489448
000320 03 c0 48 3f 89 d7 f2 bd 1d 4a f0 3c 0e 44 f5 3e
       0.78417987 -0.11857516 0.029332215 0.47903484
000330 f8 9a 06 bf fd f7 e5 be 97 26 86 3e 86 30 38 3a
       -0.52580214 -0.44915763 0.26201317 0.00070262735
000340 9d 43 fc 3e 95 03 b4 be 5b 5a dc 3e a5 85 00 be
       0.49270335 -0.35158983 0.43037686 -0.12550981
000350 c0 98 c5 3d 17 f6 b4 be 8b 22 cf be 4c b2 cc 3e
       0.096482754 -0.35344002 -0.40456042 0.3997978
000360 db 98 d4 bd 7b 62 4f 3e 4a 91 1f be 0a 18 f3 bd
       -0.10380717 0.20252411 -0.15582767 -0.118698195
000370 2d fb db 3d 42 0d 0f be 9a 17 0f 3d e0 c6 48 3e
       0.10741267 -0.13969901 0.034934618 0.19607115
000380 92 b1 9b bd 45 f8 70 3c 56 56 fb 3c de ae 35 3e
       -0.07602228 0.01470763 0.030680817 0.17742488
000390 8d 96 8d bd ff 29 22 3d f3 b4 b9 bd 15 61 2a 3d
       -0.06913481 0.03959083 -0.090677164 0.04159649
0003a0 b8 54 91 bd d9 85 ac 3d 38 8e 68 be 1d ed a1 3c
       -0.07096237 0.08423967 -0.22710502 0.019766385
0003b0 97 05 13 3e 0c f3 bb 3c e9 f4 89 3d 5b e7 b6 3d
       0.14357601 0.022943042 0.06736166 0.08930846
0003c0 f8 fb 09 be 0c 87 b1 bd e7 96 a5 3d ce d0 74 3d
       -0.13475025 -0.08668336 0.08085423 0.059769444
0003d0 97 98 82 bd 7a 54 5d bd aa cd 49 be 79 d7 27 3d
       -0.063767605 -0.05403564 -0.19707361 0.040976975
0003e0 59 f8 9b be e7 6d 8a 3e de a5 48 be ca bd e2 3e
       -0.30462912 0.27036974 -0.19594523 0.44285423
0003f0 0e 8a 49 bd 54 ce cc 3e ed da 73 3d a1 5a d6 3d
       -0.049203925 0.40001166 0.059534956 0.10466505

channel_att.lstm.bias_ih_l0_reverse f4 [96]
000000 62 b2 29 3c 14 ff 5f be c8 41 87 b9 8c c6 45 bd
       0.010357471 -0.21874648 -0.00025798217 -0.048285052
000010 14 35 05 3e 99 5c 20 3d c4 fa 71 bc 16 aa c8 ba
       0.13008529 0.039150808 -0.01476926 -0.0015309479
000020 92 62 c6 3d b1 e1 1c bc 82 2d db bd 24 b2 5e 3e
       0.096867695 -0.009575293 -0.10702039 0.21747643
000030 6a 39 02 3d 80 c4 41 3d 47 cc 74 be 82 69 d0 3d
       0.031793036 0.047306538 -0.2390605 0.10176374
000040 40 7f 4e 3d 8c d0 09 be 03 cc 09 be c6 63 04 be
       0.050414324 -0.1345846 -0.1345673 -0.12928686
000050 34 60 46 be 55 22 8d 3e dd ef 47 3d 54 c9 20 3e
       -0.19372636 0.27565256 0.048812736 0.157018
000060 4e 8c 77 be 61 92 4e bd 6d ea 64 3d b5 06 10 be
       -0.24174616 -0.050432567 0.05588763 -0.14065059
000070 c7 17 90 3d bf 34 a7 3b 03 17 dc 3c 0a e0 de 3d
       0.07035785 0.0051027234 0.026866442 0.10882576
000080 57 3d 48 3e 61 dc 7a 3e 00 2b e1 3d 94 d3 78 3e
       0.1955465 0.2449813 0.1099453 0.2429946
000090 e8 28 df bb 72 c1 d5 bc 3c 27 90 bb a5 03 5e 3e
       -0.0068102963 -0.026093218 -0.0043992084 0.21681078
0000a0 94 ff 73 3d 40 5b 36 bd c6 76 38 3e e1 b7 34 be
       0.05956991 -0.044520617 0.18014058 -0.17648269
0000b0 bf 2a e2 3e 5f 3c 8d 3d 3e 7f 2d be bf 3c b1 bd
       0.44173238 0.068962805 -0.1694307 -0.086541645
0000c0 74 4a 88 3c 7d 0d da 3c 41 d3 96 be f6 9f c4 ba
       0.016637065 0.02661776 -0.2945805 -0.0015001285
0000d0 dc e5 28 be b7 8f 3f 3e 53 30 61 bd a6 2f 85 bd
       -0.16493934 0.18707167 -0.054977726 -0.06503229
0000e0 05 6a 7f bc bc f4 15 be 5d 6a ee 3c b4 1d 84 3e
       -0.015589242 -0.1464414 0.029103452 0.25803912
0000f0 a4 b0 1a be 6a 1e 58 bd ea 9b 91 bc c2 29 ed bd
       -0.15106446 -0.05276338 -0.01777454 -0.1158023
000100 f6 50 65 3e 2b 57 0e be 38 69 39 3e fd 7b 9b 3d
       0.22394165 -0.1390044 0.18106544 0.07592008
000110 98 6e 85 bd b9 e3 ca bc 87 c5 4c 3e 17 f2 c5 bd
       -0.06515235 -0.02476679 0.19997226 -0.096653156
000120 30 c3 5e 3b e2 e8 94 be 63 31 6a 3e 47 b1 06 3d
       0.0033990853 -0.29083925 0.22870402 0.03288391
000130 8d 43 00 be 42 5b 44 be 68 d8 fd 3d 70 a6 84 be
       -0.12525769 -0.19175437 0.12394792 -0.25908232
000140 fc 8f 2c 3e f0 58 d9 bd b3 03 2e bd ca 12 04 3f
       0.168518 -0.106126666 -0.042483997 0.5159117
000150 d3 ff 41 3e bf 43 06 3e 57 b9 1f be af f4 d8 bb
       0.18945245 0.1311178 -0.15598045 -0.0066209654
000160 7e aa 19 be 96 17 04 3d 6b 9a b3 bc 5a f7 9e bc
       -0.15006444 0.032249056 -0.021924218 -0.019405056
000170 f0 9b cd 3d 04 05 10 3c 2d d9 a5 bd ad 68 93 bc
       0.10039508 0.008790258 -0.080980636 -0.01799425

channel_att.lstm.bias_hh_l0_reverse f4 [96]
000000 5a 32 c9 bd 2e 53 c0 bd 10 ff 75 3e 70 f4 25 be
       -0.09824057 -0.09390865 0.2402308 -0.16206527
000010 93 d4 cd bd 1d f4 03 be e5 f8 97 bd ef 9d 10 3d
       -0.10050311 -0.1288609 -0.0742052 0.035306867
000020 02 ef ea bb 7e 67 86 bd 0e 0c 0c be 24 22 7c 3e
       -0.007169605 -0.06562708 -0.13676473 0.24622399
000030 a8 b8 25 be 54 1f 21 3d a9 50 6d be 54 b2 9c bd
       -0.16183722 0.039336517 -0.231753 -0.07651201
000040 fb 63 26 be 4f 99 24 3e 4c e0 29 be 57 81 47 3e
       -0.16249077 0.16074108 -0.16589469 0.19482933
000050 6e 71 19 bd b9 90 89 bd 64 8b 74 be 33 0a 35 3e
       -0.03746169 -0.06717057 -0.23881298 0.17679672
000060 88 37 c8 be b2 be 8b 3d ab 67 83 bc 44 56 a9 3d
       -0.39104867 0.068234816 -0.016040644 0.08268407
000070 c4 ec ed bd 43 12 83 3e 13 2a 61 bd fd 60 8b 3e
       -0.11617425 0.2559987 -0.054971766 0.27222434
000080 37 69 25 3e be 85 fb 3d ce 3c a2 3d e4 27 8f 3c
       0.16153418 0.12281369 0.07921754 0.017475076
000090 a9 a7 ad be 8b 30 13 be 34 99 48 3e 8b 83 98 bd
       -0.33916977 -0.14373986 0.19589692 -0.07446965
0000a0 f2 74 c2 bd be 5e 97 bd f0 2b 4b 3d 2d de 13 3c
       -0.09494962 -0.073911175 0.04960245 0.009025139
0000b0 b8 fe 11 3f 02 14 8e bd 77 6d 9f 3d 4b 56 8b bd
       0.57029295 -0.0693741 0.07784551 -0.068035685
0000c0 9b 34 9a 3c b4 9f 6e 3d 5d 57 fb bc 7c 07 c0 3d
       0.018823912 0.058257774 -0.030681306 0.093764275
0000d0 22 2d 82 3d 96 86 fa bd c3 22 11 bb 5d 65 05 3e
       0.06356265 -0.122327015 -0.0022145964 0.13026948
0000e0 e5 b0 47 3e 79 56 27 3e a1 d4 86 bd 54 52 cc 3c
       0.19501074 0.1634158 -0.065835245 0.0249416
0000f0 9c a7 a6 3d 9d 31 56 bc c1 e3 bb bd 8c 2c 16 bd
       0.08137438 -0.013073352 -0.091743 -0.036663577
000100 6a 64 18 be 8a 3d b2 bd 32 02 4f 3d 7f 53 f1 3d
       -0.14882055 -0.08703144 0.050539203 0.11783504
000110 5f b9 18 3d 79 ba 5d be c7 63 f6 bc c1 32 82 3e
       0.03728616 -0.21653165 -0.030076874 0.25429347
000120 25 9f 25 be a9 ca 51 be 9d 09 11 bd e6 5d c5 3d
       -0.1617399 -0.20487465 -0.03540956 0.0963705
000130 7e 62 e3 bd 82 71 d9 bd b0 19 e4 3d e3 8c 57 be
       -0.1110277 -0.10617353 0.11137712 -0.21049838
000140 51 48 bb bd 0a 43 01 be b3 a5 b8 bc 68 f6 03 3f
       -0.09144653 -0.1262323 -0.022539949 0.5154786
000150 62 6c 20 3e d7 a3 9a 3d a5 31 3d be 70 05 fe bd
       0.15666345 0.07550781 -0.18475969 -0.12403381
000160 40 ed 0c 3e 86 5c 26 3e a9 be 6e 3e 2d 50 be bd
       0.13762379 0.16246232 0.23314919 -0.09292636
000170 68 49 78 3e 3b 74 1c 3d d9 d4 10 be 93 c1 5c 3e
       0.24246752 0.038196784 -0.14143695 0.21558218

channel_att.lstm.weight_ih_l1 f4 [96, 48]
000000 c3 6c 8a be f8 34 0e 3e b9 1d 80 be e8 82 7e be
       -0.27036104 0.13887393 -0.25022677 -0.24854624
000010 85 78 63 3e c5 38 60 3f 83 2d ad 3e 1a 0f 95 3d
       0.22213943 0.87586623 0.33823785 0.07278271
000020 4a 25 cc be f9 cd 46 be b8 69 15 3f 99 a1 66 be
       -0.398722 -0.1941451 0.5836444 -0.22522582
000030 fc 45 bd bd 01 1c 0c be f6 6f c4 be 34 b1 76 be
       -0.09241864 -0.13682558 -0.3836667 -0.24091035
000040 17 12 48 3e 88 26 0c be 79 ef 52 be cd 30 1e be
       0.1953815 -0.13686574 -0.20599164 -0.15448304
000050 0e 12 0e be 76 8c 14 be 6d 41 7d be 17 6b 3e bf
       -0.13874075 -0.14506707 -0.24731989 -0.74382156
000060 dc 63 f4 be e9 19 c6 bd 5f 6f f3 bd 0b e2 82 bd
       -0.47732437 -0.09672911 -0.11886477 -0.063907705
000070 fc 5e 96 bc 81 0a bc 3d 07 21 1e bc e4 9e 18 be
       -0.018355839 0.09181691 -0.009651429 -0.14904362
000080 c3 bf 4b 3f f4 f7 bc 3c 7a 08 53 be 35 a7 54 3f
       0.7958948 0.023067452 -0.20608702 0.8306764
000090 2d ca d2 bd 8f d3 73 be 4f b6 d0 3b fc 69 b5 bd
       -0.10292468 -0.23811172 0.006369389 -0.088581055
0000a0 39 f8 02 3f 5d 53 07 bf 8f 5a bb 3d 57 cb 89 be
       0.5116001 -0.5286158 0.09148132 -0.26912948
0000b0 30 3f a0 3d 13 83 20 be 34 53 d6 3d 59 92 48 3f
       0.07824552 -0.15675001 0.104650885 0.7834831
0000c0 e4 25 29 3e 45 f0 d6 3d 3e 3d 1d bd a2 65 06 be
       0.1651836 0.104950465 -0.038388483 -0.13124707
0000d0 8e 42 f2 3d a1 06 16 3e 3e c5 43 3e 92 98 12 bc
       0.118291005 0.14650966 0.1911821 -0.008947508
0000e0 84 cc 84 be 93 6b 25 be 00 09 cc 3e 8d 1d cb 3c
       -0.25937283 -0.16154318 0.39850616 0.024794364
0000f0 cd 7e fc 3d 28 e7 21 3d 63 de a8 3e d9 97 d1 3d
       0.12328873 0.03952709 0.32982168 0.10234041
000100 e3 8d 23 3e dd a0 23 3d e6 73 f5 3d ce 10 e1 bc
       0.15972094 0.039948333 0.119849965 -0.027473833
000110 03 b6 12 3f ec 9b 20 3e 55 fb 4c 3e 3e c9 68 be
       0.5730898 0.1568448 0.2001775 -0.22733018
000120 75 71 50 3e 3d 7b 49 3e 89 d1 a9 bd bb 70 6f 3d
       0.2035578 0.19675918 -0.08291919 0.058457118
000130 5a f9 59 be bd 26 c2 be 8c 39 0f 3e 32 c5 10 be
       -0.21286526 -0.3792018 0.13986796 -0.14137724
000140 98 e8 84 3e 5b d8 91 3d 7c de c9 3c b6 ab fe 3d
       0.25958705 0.07121345 0.024642222 0.12435095
000150 7f 70 ab bd a1 81 94 3e b3 c6 4f 3e ed e4 73 bd
       -0.08371066 0.2900515 0.20290641 -0.059544493
000160 56 64 80 bd 43 b3 49 be 43 c0 71 3e 0e 0a 99 be
       -0.062691376 -0.19697289 0.23608498 -0.29890484
000170 00 72 7c 3e d1 34 61 be c8 de 94 be 99 f8 08 3f
       0.24652863 -0.21992804 -0.2907622 0.5350433
000180 02 61 1b be ed e2 b2 be 61 68 1e 3d a7 4c 10 be
       -0.15173724 -0.34938756 0.038673762 -0.1409174
000190 66 80 b3 be 4a 62 44 be c6 ed ff bd 1d c5 1c bd
       -0.35058898 -0.1917812 -0.124965236 -0.03827392
0001a0 6f cc a3 be 4c 20 09 3f cc 8b f8 be 42 ae 9f bb
       -0.31991908 0.53564906 -0.48544157 -0.004873068
0001b0 97 99 c7 3d fc 73 53 bd 27 7b c1 bd ca dc d3 3d
       0.09746092 -0.051624283 -0.094473176 0.103448465
0001c0 1f ae 5b be d4 70 db bd 6b a7 15 3e 9f d1 98 bd
       -0.2145314 -0.1071488 0.14614646 -0.07461857
0001d0 79 b8 b1 be e3 ed cc 3d 77 5e 09 be 76 ec a7 3e
       -0.34711054 0.10006311 -0.13414942 0.32797593
0001e0 a7 55 8a 3e 6c f4 72 be 1a 18 6e 3e 76 1c b9 3e
       0.27018473 -0.23726052 0.23251382 0.36154526
0001f0 49 8d 01 3e e2 55 39 3e 04 eb 9f 3e 3c 9b 35 3e
       0.12651552 0.18099168 0.3123399 0.17734998
000200 73 d7 27 3d 38 3f 8f bd 25 87 a8 ba 52 58 94 3d
       0.040976953 -0.0699448 -0.0012857659 0.07243408
000210 87 41 c0 3d 88 57 88 be a9 54 5e be b6 6a d7 bd
       0.09387498 -0.2662928 -0.21711983 -0.105184
000220 a1 fa d5 3d 39 45 9b 3e 19 96 6a be 94 90 f6 3e
       0.10448194 0.3032625 -0.2290882 0.4815718
000230 3f 0a 85 bd ab fa 4d 3e 96 e2 47 bf 3e d9 0b 3d
       -0.06496095 0.20115153 -0.7808012 0.034142725
000240 fc 7c 7c 3c 97 f6 85 be ab a4 d7 3c 56 af cc bd
       0.015410658 -0.26164696 0.026323637 -0.0999438
000250 20 5a 85 3e 92 98 6a 3d 88 86 64 be 9a 54 dd bd
       0.26045322 0.05727441 -0.22316945 -0.10807152
000260 5c 53 57 3d fd cb 65 3e 6d 97 89 3e 90 e8 19 3e
       0.052569732 0.22441097 0.2687334 0.15030122
000270 93 08 af bd c7 6c d6 bd 2a c8 a7 be 89 f4 c3 bd
       -0.08546557 -0.104699664 -0.327699 -0.09568126
000280 6e 7b 23 be b8 4d 51 be c1 76 28 3e f4 00 38 be
       -0.15965053 -0.20439804 0.16451551 -0.17969114
000290 12 ea 5d be a8 9b 8a 3d 7c 26 8c bc 2a b4 c1 ba
       -0.21671322 0.0676797 -0.017108195 -0.0014778425
0002a0 81 c4 21 3b 2f dc a3 be 6f c4 b8 bd ee 3a 91 be
       0.0024683776 -0.32003924 -0.09021842 -0.28365272
0002b0 48 2b 44 3e 7d 89 a7 3e ac c0 6f bd 4c 9e 23 3e
       0.19157135 0.32722083 -0.058533356 0.15978354
0002c0 a4 c5 e5 3d 2e 40 f3 bd b8 00 60 3e 0d 26 00 3e
       0.112193376 -0.11877476 0.21875274 0.12514515
0002d0 19 8a f7 3d 7f e0 18 be cd c3 44 be ae 0f d6 3d
       0.12086887 -0.14929388 -0.19215317 0.104522094
0002e0 7c 6e d2 bd 29 37 99 bd bc c2 84 3d 08 c6 4d 3e
       -0.102749795 -0.07481224 0.06482455 0.20095074
0002f0 8b 5d 84 be d0 6f 04 be 73 c4 22 3e e8 f1 ab be
       -0.25852618 -0.12933278 0.15895252 -0.33582997
000300 ce 38 c9 3c db 89 1f 3e 1a e0 3c 3e 72 21 ff bc
       0.02456322 0.15579931 0.18444863 -0.031143878
000310 f3 1e a4 bd 8e 74 3f be b2 f2 2e be 77 8c 08 3e
       -0.080137156 -0.18696806 -0.17084768 0.13334833
000320 6c 2a 2a 3d 03 43 78 bd e7 38 fb 3d 98 95 07 be
       0.041544363 -0.060610782 0.12266713 -0.13240659
000330 50 13 35 3e e2 5e cb 3c 12 9f 9e 3e 0f 78 8a bd
       0.17683148 0.024825517 0.30980736 -0.067611806
000340 1a 2c 0d be e3 cb 72 3e e0 09 25 3e cb 15 9a ba
       -0.13786355 0.23710589 0.16117048 -0.0011755762
000350 99 94 07 be bf c7 6f 3d 17 cf e3 bb 5c e7 b8 bd
       -0.1324028 0.058540102 -0.0069521773 -0.09028503
000360 79 e8 0f be 82 22 9a 3e 9e 13 42 3d e5 a6 fc 3c
       -0.14053525 0.30104452 0.04738199 0.0308413
000370 85 76 34 bc c8 2a be be d5 43 13 be ce b9 1c bd
       -0.011014585 -0.37142015 -0.14381345 -0.038263135
000380 99 3c 4c be 94 76 c7 bd 0b b5 5d be ba 40 ad 3b
       -0.19944991 -0.09739414 -0.21651094 0.005287257
000390 42 7c 35 be fe f8 65 3e ec 1e 10 3e 65 36 b3 be
       -0.17723182 0.22458264 0.14074296 -0.35002437
0003a0 c0 af dd 3d a6 01 97 bd 25 ed 21 bd da 94 90 3d
       0.10824537 -0.07373361 -0.0395328 0.07059641
0003b0 3f 0d 92 3e 0f 4e 97 3e 36 2f ce bd 3f 72 ab 3c
       0.2852573 0.2955174 -0.100675985 0.0209285
0003c0 cb 67 91 3c 56 39 c0 bd aa c0 5c 3e f4 55 87 be
       0.017749688 -0.09385936 0.2155787 -0.26432765
0003d0 06 be 5c 3e cf b6 a8 3e c6 78 92 be 7c c0 e9 bd
       0.21556863 0.32951972 -0.28607768 -0.114136666
0003e0 6c 0b 23 be eb 5c 76 be ad cc 78 bd 6d b7 25 be
       -0.15922326 -0.24058883 -0.06074207 -0.16183253
0003f0 4f fb 46 3e 59 1c 1c be a3 06 4e 3e 4f c8 e4 bd
       0.19431804 -0.15245189 0.20119719 -0.11171018
